…
/home/hice1/thuang374/.conda/envs/hts/lib/python3.9/site-packages/transformers/utils/hub.py:374: FutureWarning: The `use_auth_token` argument is deprecated and will be removed in v5 of Transformers.
  warnings.warn(
Special tokens have been added in the vocabulary, make sure the associated word embeddings are fine-tuned or trained.
WARNING:root:Loading data...
WARNING:root:Formatting inputs...
WARNING:root:Tokenizing inputs... This may take some time...
WARNING:root:Loading data...
WARNING:root:Formatting inputs...
WARNING:root:Tokenizing inputs... This may take some time...
128258
Recover LoRA weights..
PeftModelForCausalLM(
  (base_model): LoraModel(
    (model): LlamaForCausalLM(
      (model): LlamaModel(
        (embed_tokens): Embedding(128258, 4096)
        (layers): ModuleList(
          (0-31): 32 x LlamaDecoderLayer(
            (self_attn): LlamaAttention(
              (q_proj): Linear(
                in_features=4096, out_features=4096, bias=False
                (lora_dropout): ModuleDict(
                  (default): Identity()
                )
                (lora_A): ModuleDict(
                  (default): Linear(in_features=4096, out_features=256, bias=False)
                )
                (lora_B): ModuleDict(
                  (default): Linear(in_features=256, out_features=4096, bias=False)
                )
                (lora_embedding_A): ParameterDict()
                (lora_embedding_B): ParameterDict()
              )
              (k_proj): Linear(
                in_features=4096, out_features=1024, bias=False
                (lora_dropout): ModuleDict(
                  (default): Identity()
                )
                (lora_A): ModuleDict(
                  (default): Linear(in_features=4096, out_features=256, bias=False)
                )
                (lora_B): ModuleDict(
                  (default): Linear(in_features=256, out_features=1024, bias=False)
                )
                (lora_embedding_A): ParameterDict()
                (lora_embedding_B): ParameterDict()
              )
              (v_proj): Linear(
                in_features=4096, out_features=1024, bias=False
                (lora_dropout): ModuleDict(
                  (default): Identity()
                )
                (lora_A): ModuleDict(
                  (default): Linear(in_features=4096, out_features=256, bias=False)
                )
                (lora_B): ModuleDict(
                  (default): Linear(in_features=256, out_features=1024, bias=False)
                )
                (lora_embedding_A): ParameterDict()
                (lora_embedding_B): ParameterDict()
              )
              (o_proj): Linear(in_features=4096, out_features=4096, bias=False)
              (rotary_emb): LlamaRotaryEmbedding()
            )
            (mlp): LlamaMLP(
              (gate_proj): Linear(in_features=4096, out_features=14336, bias=False)
              (up_proj): Linear(in_features=4096, out_features=14336, bias=False)
              (down_proj): Linear(in_features=14336, out_features=4096, bias=False)
              (act_fn): SiLUActivation()
            )
            (input_layernorm): LlamaRMSNorm()
            (post_attention_layernorm): LlamaRMSNorm()
          )
        )
        (norm): LlamaRMSNorm()
      )
      (lm_head): Linear(in_features=4096, out_features=128258, bias=False)
    )
  )
)
PeftModelForCausalLM(
  (base_model): LoraModel(
    (model): LlamaForCausalLM(
      (model): LlamaModel(
        (embed_tokens): Embedding(128258, 4096)
        (layers): ModuleList(
          (0-31): 32 x LlamaDecoderLayer(
            (self_attn): LlamaAttention(
              (q_proj): Linear(
                in_features=4096, out_features=4096, bias=False
                (lora_dropout): ModuleDict(
                  (default): Identity()
                )
                (lora_A): ModuleDict(
                  (default): Linear(in_features=4096, out_features=256, bias=False)
                )
                (lora_B): ModuleDict(
                  (default): Linear(in_features=256, out_features=4096, bias=False)
                )
                (lora_embedding_A): ParameterDict()
                (lora_embedding_B): ParameterDict()
              )
              (k_proj): Linear(
                in_features=4096, out_features=1024, bias=False
                (lora_dropout): ModuleDict(
                  (default): Identity()
                )
                (lora_A): ModuleDict(
                  (default): Linear(in_features=4096, out_features=256, bias=False)
                )
                (lora_B): ModuleDict(
                  (default): Linear(in_features=256, out_features=1024, bias=False)
                )
                (lora_embedding_A): ParameterDict()
                (lora_embedding_B): ParameterDict()
              )
              (v_proj): Linear(
                in_features=4096, out_features=1024, bias=False
                (lora_dropout): ModuleDict(
                  (default): Identity()
                )
                (lora_A): ModuleDict(
                  (default): Linear(in_features=4096, out_features=256, bias=False)
                )
                (lora_B): ModuleDict(
                  (default): Linear(in_features=256, out_features=1024, bias=False)
                )
                (lora_embedding_A): ParameterDict()
                (lora_embedding_B): ParameterDict()
              )
              (o_proj): Linear(in_features=4096, out_features=4096, bias=False)
              (rotary_emb): LlamaRotaryEmbedding()
            )
            (mlp): LlamaMLP(
              (gate_proj): Linear(in_features=4096, out_features=14336, bias=False)
              (up_proj): Linear(in_features=4096, out_features=14336, bias=False)
              (down_proj): Linear(in_features=14336, out_features=4096, bias=False)
              (act_fn): SiLUActivation()
            )
            (input_layernorm): LlamaRMSNorm()
            (post_attention_layernorm): LlamaRMSNorm()
          )
        )
        (norm): LlamaRMSNorm()
      )
      (lm_head): Linear(in_features=4096, out_features=128258, bias=False)
    )
  )
)
finetuning dataset
19980.0
  0%|          | 0/20000 [00:00<?, ?it/s]  0%|          | 1/20000 [00:02<15:35:57,  2.81s/it]  0%|          | 2/20000 [00:02<6:58:47,  1.26s/it]   0%|          | 3/20000 [00:03<4:10:35,  1.33it/s]  0%|          | 4/20000 [00:03<2:54:47,  1.91it/s]  0%|          | 5/20000 [00:03<2:16:49,  2.44it/s]  0%|
…
Loading checkpoint shards:   0%|          | 0/4 [00:00<?, ?it/s]Loading checkpoint shards:  25%|██▌       | 1/4 [00:03<00:09,  3.32s/it]Loading checkpoint shards:  50%|█████     | 2/4 [00:06<00:06,  3.32s/it]Loading checkpoint shards:  75%|███████▌  | 3/4 [00:09<00:03,  3.31s/it]Loading checkpoint shards: 100%|██████████| 4/4 [00:10<00:00,  2.34s/it]Loading checkpoint shards: 100%|██████████| 4/4 [00:10<00:00,  2.70s/it]
/home/hice1/thuang374/.conda/envs/hts/lib/python3.9/site-packages/transformers/utils/hub.py:374: FutureWarning: The `use_auth_token` argument is deprecated and will be removed in v5 of Transformers.
  warnings.warn(
Recover LoRA weights..
Recover LoRA weights..
LlamaForCausalLM(
  (model): LlamaModel(
    (embed_tokens): Embedding(128256, 4096)
    (layers): ModuleList(
      (0-31): 32 x LlamaDecoderLayer(
        (self_attn): LlamaAttention(
          (q_proj): Linear(in_features=4096, out_features=4096, bias=False)
          (k_proj): Linear(in_features=4096, out_features=1024, bias=False)
          (v_proj): Linear(in_features=4096, out_features=1024, bias=False)
          (o_proj): Linear(in_features=4096, out_features=4096, bias=False)
          (rotary_emb): LlamaRotaryEmbedding()
        )
        (mlp): LlamaMLP(
          (gate_proj): Linear(in_features=4096, out_features=14336, bias=False)
          (up_proj): Linear(in_features=4096, out_features=14336, bias=False)
          (down_proj): Linear(in_features=14336, out_features=4096, bias=False)
          (act_fn): SiLUActivation()
        )
        (input_layernorm): LlamaRMSNorm()
        (post_attention_layernorm): LlamaRMSNorm()
      )
    )
    (norm): LlamaRMSNorm()
  )
  (lm_head): Linear(in_features=4096, out_features=128256, bias=False)
)
  0%|          | 0/1000 [00:00<?, ?it/s]  0%|          | 1/1000 [00:00<14:31,  1.15it/s]  0%|          | 2/1000 [00:01<09:19,  1.78it/s]  0%|          | 3/1000 [00:02<14:28,  1.15it/s]  0%|          | 4/1000 [00:03<12:41,  1.31it/s]  0%|          | 5/1000 [00:03<13:29,  1.23it/s]  1%|          | 6/1000 [00:05<15:01,  1.10it/s]  1%|      
…
Loading checkpoint shards:   0%|          | 0/4 [00:00<?, ?it/s]Loading checkpoint shards:  25%|██▌       | 1/4 [00:03<00:09,  3.32s/it]Loading checkpoint shards:  50%|█████     | 2/4 [00:06<00:06,  3.33s/it]Loading checkpoint shards:  75%|███████▌  | 3/4 [00:09<00:03,  3.32s/it]Loading checkpoint shards: 100%|██████████| 4/4 [00:10<00:00,  2.34s/it]Loading checkpoint shards: 100%|██████████| 4/4 [00:10<00:00,  2.70s/it]
/home/hice1/thuang374/.conda/envs/hts/lib/python3.9/site-packages/transformers/utils/hub.py:374: FutureWarning: The `use_auth_token` argument is deprecated and will be removed in v5 of Transformers.
  warnings.warn(
Recover LoRA weights..
LlamaForCausalLM(
  (model): LlamaModel(
    (embed_tokens): Embedding(128256, 4096)
    (layers): ModuleList(
      (0-31): 32 x LlamaDecoderLayer(
        (self_attn): LlamaAttention(
          (q_proj): Linear(in_features=4096, out_features=4096, bias=False)
          (k_proj): Linear(in_features=4096, out_features=1024, bias=False)
          (v_proj): Linear(in_features=4096, out_features=1024, bias=False)
          (o_proj): Linear(in_features=4096, out_features=4096, bias=False)
          (rotary_emb): LlamaRotaryEmbedding()
        )
        (mlp): LlamaMLP(
          (gate_proj): Linear(in_features=4096, out_features=14336, bias=False)
          (up_proj): Linear(in_features=4096, out_features=14336, bias=False)
          (down_proj): Linear(in_features=14336, out_features=4096, bias=False)
          (act_fn): SiLUActivation()
        )
        (input_layernorm): LlamaRMSNorm()
        (post_attention_layernorm): LlamaRMSNorm()
      )
    )
    (norm): LlamaRMSNorm()
  )
  (lm_head): Linear(in_features=4096, out_features=128256, bias=False)
)
Recover LoRA weights..
LlamaForCausalLM(
  (model): LlamaModel(
    (embed_tokens): Embedding(128256, 4096)
    (layers): ModuleList(
      (0-31): 32 x LlamaDecoderLayer(
        (self_attn): LlamaAttention(
          (q_proj): Linear(in_features=4096, out_features=4096, bias=False)
          (k_proj): Linear(in_features=4096, out_features=1024, bias=False)
          (v_proj): Linear(in_features=4096, out_features=1024, bias=False)
          (o_proj): Linear(in_features=4096, out_features=4096, bias=False)
          (rotary_emb): LlamaRotaryEmbedding()
        )
        (mlp): LlamaMLP(
          (gate_proj): Linear(in_features=4096, out_features=14336, bias=False)
          (up_proj): Linear(in_features=4096, out_features=14336, bias=False)
          (down_proj): Linear(in_features=14336, out_features=4096, bias=False)
          (act_fn): SiLUActivation()
        )
        (input_layernorm): LlamaRMSNorm()
        (post_attention_layernorm): LlamaRMSNorm()
      )
    )
    (norm): LlamaRMSNorm()
  )
  (lm_head): Linear(in_features=4096, out_features=128256, bias=False)
)
  0%|          | 0/1000 [00:00<?, ?it/s]  0%|          | 1/1000 [00:01<22:31,  1.35s/it]  0%|          | 2/1000 [00:02<17:36,  1.06s/it]  0%|          | 3/1000 [00:03<19:30,  1.17s/it]  0%|          | 4/1000 [00:04<17:47,  1.07s/it]  0%|          | 5/1000 [00:05<17:48,  1.07s/it]  1%|          | 6/1000 [00:07<20:16,  1.22s/it]  1%|      
…
