…
Loading checkpoint shards:   0%|          | 0/4 [00:00<?, ?it/s]Loading checkpoint shards:  25%|██▌       | 1/4 [00:04<00:12,  4.03s/it]Loading checkpoint shards:  50%|█████     | 2/4 [00:08<00:08,  4.02s/it]Loading checkpoint shards:  75%|███████▌  | 3/4 [00:11<00:03,  3.99s/it]Loading checkpoint shards: 100%|██████████| 4/4 [00:13<00:00,  2.82s/it]Loading checkpoint shards: 100%|██████████| 4/4 [00:13<00:00,  3.25s/it]
/home/hice1/thuang374/.conda/envs/hts/lib/python3.9/site-packages/transformers/utils/hub.py:374: FutureWarning: The `use_auth_token` argument is deprecated and will be removed in v5 of Transformers.
  warnings.warn(
Recover LoRA weights..
Recover LoRA weights..
LlamaForCausalLM(
  (model): LlamaModel(
    (embed_tokens): Embedding(128256, 4096)
    (layers): ModuleList(
      (0-31): 32 x LlamaDecoderLayer(
        (self_attn): LlamaAttention(
          (q_proj): Linear(in_features=4096, out_features=4096, bias=False)
          (k_proj): Linear(in_features=4096, out_features=1024, bias=False)
          (v_proj): Linear(in_features=4096, out_features=1024, bias=False)
          (o_proj): Linear(in_features=4096, out_features=4096, bias=False)
          (rotary_emb): LlamaRotaryEmbedding()
        )
        (mlp): LlamaMLP(
          (gate_proj): Linear(in_features=4096, out_features=14336, bias=False)
          (up_proj): Linear(in_features=4096, out_features=14336, bias=False)
          (down_proj): Linear(in_features=14336, out_features=4096, bias=False)
          (act_fn): SiLUActivation()
        )
        (input_layernorm): LlamaRMSNorm()
        (post_attention_layernorm): LlamaRMSNorm()
      )
    )
    (norm): LlamaRMSNorm()
  )
  (lm_head): Linear(in_features=4096, out_features=128256, bias=False)
)
  0%|          | 0/1000 [00:00<?, ?it/s]  0%|          | 1/1000 [00:01<17:11,  1.03s/it]  0%|          | 2/1000 [00:01<13:12,  1.26it/s]  0%|          | 3/1000 [00:02<15:27,  1.08it/s]  0%|          | 4/1000 [00:04<19:34,  1.18s/it]  0%|          | 5/1000 [00:05<16:55,  1.02s/it]  1%|          | 6/1000 [00:06<20:22,  1.23s/it]  1%|      
…
Loading checkpoint shards:   0%|          | 0/4 [00:00<?, ?it/s]Loading checkpoint shards:  25%|██▌       | 1/4 [00:04<00:12,  4.04s/it]Loading checkpoint shards:  50%|█████     | 2/4 [00:09<00:10,  5.14s/it]Loading checkpoint shards:  75%|███████▌  | 3/4 [00:13<00:04,  4.60s/it]Loading checkpoint shards: 100%|██████████| 4/4 [00:14<00:00,  3.19s/it]Loading checkpoint shards: 100%|██████████| 4/4 [00:14<00:00,  3.73s/it]
/home/hice1/thuang374/.conda/envs/hts/lib/python3.9/site-packages/transformers/utils/hub.py:374: FutureWarning: The `use_auth_token` argument is deprecated and will be removed in v5 of Transformers.
  warnings.warn(
Recover LoRA weights..
LlamaForCausalLM(
  (model): LlamaModel(
    (embed_tokens): Embedding(128256, 4096)
    (layers): ModuleList(
      (0-31): 32 x LlamaDecoderLayer(
        (self_attn): LlamaAttention(
          (q_proj): Linear(in_features=4096, out_features=4096, bias=False)
          (k_proj): Linear(in_features=4096, out_features=1024, bias=False)
          (v_proj): Linear(in_features=4096, out_features=1024, bias=False)
          (o_proj): Linear(in_features=4096, out_features=4096, bias=False)
          (rotary_emb): LlamaRotaryEmbedding()
        )
        (mlp): LlamaMLP(
          (gate_proj): Linear(in_features=4096, out_features=14336, bias=False)
          (up_proj): Linear(in_features=4096, out_features=14336, bias=False)
          (down_proj): Linear(in_features=14336, out_features=4096, bias=False)
          (act_fn): SiLUActivation()
        )
        (input_layernorm): LlamaRMSNorm()
        (post_attention_layernorm): LlamaRMSNorm()
      )
    )
    (norm): LlamaRMSNorm()
  )
  (lm_head): Linear(in_features=4096, out_features=128256, bias=False)
)
Recover LoRA weights..
LlamaForCausalLM(
  (model): LlamaModel(
    (embed_tokens): Embedding(128256, 4096)
    (layers): ModuleList(
      (0-31): 32 x LlamaDecoderLayer(
        (self_attn): LlamaAttention(
          (q_proj): Linear(in_features=4096, out_features=4096, bias=False)
          (k_proj): Linear(in_features=4096, out_features=1024, bias=False)
          (v_proj): Linear(in_features=4096, out_features=1024, bias=False)
          (o_proj): Linear(in_features=4096, out_features=4096, bias=False)
          (rotary_emb): LlamaRotaryEmbedding()
        )
        (mlp): LlamaMLP(
          (gate_proj): Linear(in_features=4096, out_features=14336, bias=False)
          (up_proj): Linear(in_features=4096, out_features=14336, bias=False)
          (down_proj): Linear(in_features=14336, out_features=4096, bias=False)
          (act_fn): SiLUActivation()
        )
        (input_layernorm): LlamaRMSNorm()
        (post_attention_layernorm): LlamaRMSNorm()
      )
    )
    (norm): LlamaRMSNorm()
  )
  (lm_head): Linear(in_features=4096, out_features=128256, bias=False)
)
  0%|          | 0/1000 [00:00<?, ?it/s]  0%|          | 1/1000 [00:02<45:35,  2.74s/it]  0%|          | 2/1000 [00:03<27:16,  1.64s/it]  0%|          | 3/1000 [00:05<31:15,  1.88s/it]  0%|          | 4/1000 [00:06<23:50,  1.44s/it]  0%|          | 5/1000 [00:08<26:58,  1.63s/it]  1%|          | 6/1000 [00:10<29:57,  1.81s/it]  1%|      
…
